…
Loading summary model...
2025-01-22 13:13:12.871870: I tensorflow/core/platform/cpu_feature_guard.cc:210] This TensorFlow binary is optimized to use available CPU instructions in performance-critical operations.
To enable the following instructions: AVX2 FMA, in other operations, rebuild TensorFlow with the appropriate compiler flags.
Model: "functional"
┌─────────────────────┬───────────────────┬────────────┬───────────────────┐
│ Layer (type)        │ Output Shape      │    Param # │ Connected to      │
├─────────────────────┼───────────────────┼────────────┼───────────────────┤
│ user_input          │ (None, 1)         │          0 │ -                 │
│ (InputLayer)        │                   │            │                   │
├─────────────────────┼───────────────────┼────────────┼───────────────────┤
│ item_input          │ (None, 1)         │          0 │ -                 │
│ (InputLayer)        │                   │            │                   │
├─────────────────────┼───────────────────┼────────────┼───────────────────┤
│ embedding           │ (None, 1, 64)     │  3,419,200 │ user_input[0][0]  │
│ (Embedding)         │                   │            │                   │
├─────────────────────┼───────────────────┼────────────┼───────────────────┤
│ embedding_1         │ (None, 1, 64)     │    640,064 │ item_input[0][0]  │
│ (Embedding)         │                   │            │                   │
├─────────────────────┼───────────────────┼────────────┼───────────────────┤
│ flatten (Flatten)   │ (None, 64)        │          0 │ embedding[0][0]   │
├─────────────────────┼───────────────────┼────────────┼───────────────────┤
│ flatten_1 (Flatten) │ (None, 64)        │          0 │ embedding_1[0][0] │
├─────────────────────┼───────────────────┼────────────┼───────────────────┤
│ concatenate         │ (None, 128)       │          0 │ flatten[0][0],    │
│ (Concatenate)       │                   │            │ flatten_1[0][0]   │
├─────────────────────┼───────────────────┼────────────┼───────────────────┤
│ dense (Dense)       │ (None, 128)       │     16,512 │ concatenate[0][0] │
├─────────────────────┼───────────────────┼────────────┼───────────────────┤
│ dropout (Dropout)   │ (None, 128)       │          0 │ dense[0][0]       │
├─────────────────────┼───────────────────┼────────────┼───────────────────┤
│ dense_1 (Dense)     │ (None, 64)        │      8,256 │ dropout[0][0]     │
├─────────────────────┼───────────────────┼────────────┼───────────────────┤
│ dropout_1 (Dropout) │ (None, 64)        │          0 │ dense_1[0][0]     │
├─────────────────────┼───────────────────┼────────────┼───────────────────┤
│ dense_2 (Dense)     │ (None, 1)         │         65 │ dropout_1[0][0]   │
├─────────────────────┼───────────────────┼────────────┼───────────────────┤
│ multiply (Multiply) │ (None, 1)         │          0 │ dense_2[0][0]     │
├─────────────────────┼───────────────────┼────────────┼───────────────────┤
│ add (Add)           │ (None, 1)         │          0 │ multiply[0][0]    │
└─────────────────────┴───────────────────┴────────────┴───────────────────┘
 Total params: 4,084,097 (15.58 MB)
 Trainable params: 4,084,097 (15.58 MB)
 Non-trainable params: 0 (0.00 B)
None
C:\Users\topde\PycharmProjects\Projects\reccomd_project2\.venv\Lib\site-packages\keras\src\saving\saving_lib.py:757: UserWarning: Skipping variable loading for optimizer 'rmsprop', because it has 10 variables whereas the saved optimizer has 18 variables.
…
