…
precision@5_knn_user: 0.1524
precision@5_knn_item: 0.0148
precision@10_cf_user: 0.0004
precision@10_cf_item: 0.0003
precision@10_knn_user: 0.1314
precision@10_knn_item: 0.0130
precision@15_cf_user: 0.0005
precision@15_cf_item: 0.0003
precision@15_knn_user: 0.1153
precision@15_knn_item: 0.0122


---------------------------------------
Model: "functional"
┌─────────────────────┬───────────────────┬────────────┬───────────────────┐
│ Layer (type)        │ Output Shape      │    Param # │ Connected to      │
├─────────────────────┼───────────────────┼────────────┼───────────────────┤
│ user_input          │ (None, 1)         │          0 │ -                 │
│ (InputLayer)        │                   │            │                   │
├─────────────────────┼───────────────────┼────────────┼───────────────────┤
│ item_input          │ (None, 1)         │          0 │ -                 │
│ (InputLayer)        │                   │            │                   │
├─────────────────────┼───────────────────┼────────────┼───────────────────┤
│ embedding           │ (None, 1, 64)     │  3,419,136 │ user_input[0][0]  │
│ (Embedding)         │                   │            │                   │
├─────────────────────┼───────────────────┼────────────┼───────────────────┤
│ embedding_1         │ (None, 1, 64)     │    640,000 │ item_input[0][0]  │
│ (Embedding)         │                   │            │                   │
├─────────────────────┼───────────────────┼────────────┼───────────────────┤
│ flatten (Flatten)   │ (None, 64)        │          0 │ embedding[0][0]   │
├─────────────────────┼───────────────────┼────────────┼───────────────────┤
│ flatten_1 (Flatten) │ (None, 64)        │          0 │ embedding_1[0][0] │
├─────────────────────┼───────────────────┼────────────┼───────────────────┤
│ concatenate         │ (None, 128)       │          0 │ flatten[0][0],    │
│ (Concatenate)       │                   │            │ flatten_1[0][0]   │
├─────────────────────┼───────────────────┼────────────┼───────────────────┤
│ dense (Dense)       │ (None, 128)       │     16,512 │ concatenate[0][0] │
├─────────────────────┼───────────────────┼────────────┼───────────────────┤
│ dropout (Dropout)   │ (None, 128)       │          0 │ dense[0][0]       │
├─────────────────────┼───────────────────┼────────────┼───────────────────┤
│ dense_1 (Dense)     │ (None, 64)        │      8,256 │ dropout[0][0]     │
├─────────────────────┼───────────────────┼────────────┼───────────────────┤
│ dropout_1 (Dropout) │ (None, 64)        │          0 │ dense_1[0][0]     │
├─────────────────────┼───────────────────┼────────────┼───────────────────┤
│ dense_2 (Dense)     │ (None, 1)         │         65 │ dropout_1[0][0]   │
└─────────────────────┴───────────────────┴────────────┴───────────────────┘
 Total params: 4,083,969 (15.58 MB)
 Trainable params: 4,083,969 (15.58 MB)
 Non-trainable params: 0 (0.00 B)
Min user_id: 0, Max user_id: 53423
Min item_id: 0, Max item_id: 9999
Epoch 1/10
16809/16809 ━━━━━━━━━━━━━━━━━━━━ 505s 30ms/step - loss: 1.2366 - val_loss: 0.8141
Epoch 2/10
16809/16809 ━━━━━━━━━━━━━━━━━━━━ 518s 31ms/step - loss: 0.7598 - val_loss: 0.8055
…
